…
To enable the following instructions: SSE SSE2 SSE3 SSE4.1 SSE4.2 AVX2 FMA, in other operations, rebuild TensorFlow with the appropriate compiler flags.
WARNING:tensorflow:From C:\Users\admin\AppData\Local\Programs\Python\Python311\Lib\site-packages\keras\src\optimizers\__init__.py:309: The name tf.train.Optimizer is deprecated. Please use tf.compat.v1.train.Optimizer instead.

Model: "sequential"
_________________________________________________________________
 Layer (type)                Output Shape              Param #
=================================================================
 embedding (Embedding)       (None, 200, 128)          3200000

 bidirectional (Bidirection  (None, 200, 128)          98816
 al)

 bidirectional_1 (Bidirecti  (None, 64)                41216
 onal)

 dense (Dense)               (None, 64)                4160

 dropout (Dropout)           (None, 64)                0

 dense_1 (Dense)             (None, 1)                 65

=================================================================
Total params: 3344257 (12.76 MB)
Trainable params: 3344257 (12.76 MB)
Non-trainable params: 0 (0.00 Byte)
_________________________________________________________________
Training LSTM model...
Epoch 1/5
WARNING:tensorflow:From C:\Users\admin\AppData\Local\Programs\Python\Python311\Lib\site-packages\keras\src\utils\tf_utils.py:492: The name tf.ragged.RaggedTensorValue is deprecated. Please use tf.compat.v1.ragged.RaggedTensorValue instead.
…
